ppo_autoencoder/rssm/checkpoint.pth (torch, 2747 bytes, 3 tensors)

fc1.weight f4 [16, 2]
0	0x3faefa1c	1.3670077
1	0x3ee423a0	0.4455843
2	0xbd5bad04	-0.053631797
3	0x3f229f5c	0.63524413
4	0x3dfa0c13	0.12209334
5	0xbed5eb27	-0.4178097
6	0xbf0031dc	-0.5007608
7	0x3eb94be2	0.36190706
8	0xbf711bdc	-0.94183135
9	0x3ef721d0	0.48267984
10	0x3ef58233	0.47950897
11	0x3e9addac	0.30247247
12	0x3f0843e1	0.53228575
13	0x3d836071	0.06414879
14	0xbe9f49ae	-0.311109
15	0x3e2a31ed	0.16620608
16	0x3ee8dad6	0.4547946
17	0x3fa57db5	1.2928988
18	0x3f0b0a75	0.5431283
19	0x3edaf410	0.4276433
20	0x3ed927f9	0.4241331
21	0x3fa746c0	1.3068466
22	0xbf848eec	-1.0356116
23	0xbf03698d	-0.5133293
24	0xbd3bff22	-0.04589761
25	0x3f27421d	0.65335256
26	0x3eaafb5c	0.33394897
27	0x3e8f14d2	0.27945572
28	0x3f89880a	1.0744641
29	0x3dffee96	0.124966785
30	0xbe052cd8	-0.13005388
31	0xbdc3a416	-0.09552781

fc1.bias f4 [16]
0	0xbf7a629f	-0.97806734
1	0xbe75bd57	-0.23998009
2	0xbf258972	-0.6466285
3	0xbe9f20d9	-0.31079748
4	0xbf1900bd	-0.5976675
5	0x3f0ad20b	0.5422675
6	0xbe33c1f5	-0.17554457
7	0x3f3d56b1	0.73960406
8	0xbef6f569	-0.48234108
9	0xbe0dd0de	-0.13849208
10	0xbf99d655	-1.2018534
11	0xbec4f903	-0.3847123
12	0x3f449a99	0.767984
13	0xbf8d011f	-1.1015967
14	0xbcaf4d75	-0.02139924
15	0x3f317f02	0.69334424

fc2.weight f4 [1, 16]
0	0x3f8cc6ce	1.099817
1	0xbf084674	-0.532325
2	0xbbe5c71f	-0.0070122625
3	0xbf3a6df7	-0.72824043
4	0x3f4dae00	0.8034363
5	0xbf313cd0	-0.6923342
6	0x3eacd5e8	0.33756948
7	0x3ee55182	0.44788748
8	0x3d449535	0.047993857
9	0x3fb19df1	1.3876325
10	0xbf09eda5	-0.5387824
11	0xbd481139	-0.04884455
12	0xbe30b056	-0.17254767
13	0x3fd3142c	1.6490531
14	0xbcd14252	-0.02554432
15	0x3e8a9b74	0.27071726
