Other Algorithms/ppo/ppo_actor.pth (torch, 20572 bytes, 5 tensors)

layer1.weight f4 [64, 3]
00000000: 0eba c8be dc5d b43e 25b8 493e deb1 b9be
00000010: 1b68 2dbe 2971 9c3e af52 003e 455a 883e
00000020: 2a3a acbe d7d7 413f 55fe 62be 2c67 b13e
00000030: 08d6 efbe 87fc 963e 59e0 803e d4d5 5b3f
00000040: ad66 40be a287 ccbe 5a70 3bbf 6c53 71be
00000050: 1105 f03c 99b5 69bf 6f97 11be 9d79 a2bd
00000060: 76d0 2fbe 55dc 1bbe c5d9 823e 1d0f 6dbf
00000070: 598e d33e 3b33 e13e 3723 c6be 32e6 b1be
00000080: 4be7 04bf 0554 04bf 8699 cdbe 4e4a 0cbf
00000090: f125 d93e 5ddb afbf be45 e5be 600c eabc
000000a0: 3cb5 a73e e6e2 c63e a72e 973e 73ea c13e
000000b0: 3d66 6bbe 2322 2e3f 029f 59bd c5c2 f43d
000000c0: 458c 813f 2ea6 aa3d fe0d cebe f644 4bbf
000000d0: 2376 dc3d 9c68 963d a7e6 393f e021 cabe
000000e0: 296b 9b3e e8eb e33e 0bc6 363f 8850 303e
000000f0: 88a8 723f 28bd 95be 796b 263e cb76 503f
00000100: 0a0a e3be e213 8abe 8167 cb3d 2d5c d93e
00000110: 9634 e43d 0380 e23e 646e c9be 7405 d7be
00000120: ef6d dcbd 9e46 72bf f307 40be 8b3b 9f3e
00000130: 265a d2be 8552 043e 67f3 893e 9ce3 90be
00000140: 85fc 063e 81ee ecbe a903 2a3f 4daa 633e
00000150: 3a72 a9be 2785 2cbf 3f68 d9be d0a8 54be
00000160: 7498 b63d d63a bc3e be1b dbbe ed04 473f
00000170: 1734 aa3e 5059 4ebf 3d09 c7bd 020d f9be
00000180: b536 26bf 50ce 3a3e a908 01be f382 30bd
00000190: 2773 633d 4398 073e ce20 d1be 7eca 873e
000001a0: dfaa 943e 0833 c8be 0963 1dbf 115a 10be
000001b0: 0377 c4bd e75d bebf 4f01 83be dad4 0d3f
000001c0: ebb8 f63e 7059 4b3e 50d1 ecbe 6613 123e
000001d0: be10 813e 9c01 57bf b6bc ac3c be47 01bf
000001e0: de51 87bd 161b 76bc 1261 463e b5b9 28bf
000001f0: e446 5abe fdc5 063d 7002 9b3e e5be 0c3f
00000200: 13d2 a33e f722 ebbe 7f39 2dbf 951d d3bd
00000210: 1339 70bf 41f5 8cbe afa0 17bc 58ea 10bf
00000220: a961 9e3e 0fbe 04bf 1e81 e2be a33c 27bf
00000230: 396f 04bf 7f1e a13e 2a52 aabb dca4 b2be
00000240: 750b 203f 3e47 a4be ed2f 543e fb37 f13e
00000250: 4cec f43d 53f3 a23d e05f cf3e 6601 f13e
00000260: f9c1 81be 0a63 5c3e 9b81 30be 471b 8abe
00000270: bcbc d1bd e61f 2fbf 6046 80be 7c2a 873f
00000280: 2ad5 b5bd ff2b 8e3e 72f8 413d 53d7 8fbe
00000290: fe54 013e 83c4 8a3e 3530 d4be 6a4b 5e3e
000002a0: d59a 43bd 0952 95bf 1742 e6bd e6eb adbd
000002b0: 1003 ab3e e9fa 833d 00f0 4dbf 855f 093f
000002c0: 61bf 913e 4efa ec3b e8ce 67bf ef16 453d
000002d0: 29fb 8e3d 4df2 68bf 8c09 c5be 53db 09bd
000002e0: 641c 85bd b14e e03e 3d59 79bf 1a58 153e
000002f0: fab5 1ebe 3ee1 753f be49 debe d523 0a3f
-0.39204448 0.3522786 0.19699152 -0.36268514 -0.16934244 0.30555084 0.12531541 0.2663137
-0.33638126 0.7571997 -0.22167332 0.34649026 -0.4684298 0.29489538 0.25171164 0.8587315
-0.18789168 -0.3994723 -0.7321831 -0.23566979 0.02929929 -0.9129272 -0.14217924 -0.07933352
-0.17169365 -0.15220769 0.2555677 -0.92601186 0.4131954 0.43984398 -0.38698742 -0.34745938
-0.51915425 -0.51690704 -0.40156192 -0.5480088 0.4241176 -1.3738819 -0.44779772 -0.028570354
0.32755458 0.38844985 0.2952778 0.37874183 -0.2298822 0.6802084 -0.053130157 0.11951212
1.0120932 0.083324775 -0.4024505 -0.794021 0.1076472 0.073441714 0.7261757 -0.3947897
0.30355194 0.4451592 0.7139594 0.1721822 0.9478841 -0.29245877 0.16251935 0.81431264
-0.44343597 -0.26968294 0.09931851 0.42453137 0.111428425 0.4423829 -0.39342034 -0.41996348
-0.10763156 -0.94639003 -0.18753032 0.31100115 -0.41084403 0.12922104 0.26943514 -0.28298652
0.13182266 -0.46275714 0.66411835 0.22232933 -0.3309496 -0.67390674 -0.42462346 -0.20767522
0.08915797 0.36763638 -0.42794603 0.7774189 0.33242866 -0.8060503 -0.09718559 -0.48642737
-0.64927226 0.18242764 -0.1260096 -0.043093633 0.05552974 0.13241677 -0.4084534 0.26521677
0.29036614 -0.39101434 -0.6147924 -0.14096858 -0.09593012 -1.4872407 -0.25586936 0.5540291
0.48187956 0.19858336 -0.46253443 0.14265212 0.25208086 -0.8398683 0.021086078 -0.50500095
-0.06607412 -0.015021106 0.19372967 -0.65908366 -0.21316105 0.03290366 0.30275297 0.5497878
0.3199621 -0.45925114 -0.6766586 -0.10308377 -0.9383709 -0.27530864 -0.009254619 -0.5660758
0.30933884 -0.51852506 -0.44239134 -0.653269 -0.5173221 0.3146858 -0.005197783 -0.34891403
0.6251748 -0.32085603 0.20721407 0.47113022 0.119591326 0.07956567 0.40502834 0.4707138
-0.25343302 0.21522155 -0.1723694 -0.26973936 -0.10241076 -0.6840805 -0.25053692 1.055984
-0.088785484 0.2776794 0.047356077 -0.28093967 0.12630078 0.27103052 -0.4144303 0.21708456
-0.04775508 -1.166566 -0.112430744 -0.0849226 0.33400774 0.06444342 -0.80444336 0.53661376
0.28466323 0.007231987 -0.9055009 0.048117574 0.06981499 -0.9099472 -0.38483846 -0.03365643
-0.06499556 0.43810037 -0.9740179 0.1458439 -0.15499106 0.9604682 -0.43415636 0.53960925

layer1.bias f4 [64]
00000000: ddfd b33e 931f 0b3c 5e24 54bf 8806 1bbf
00000010: 2a55 633e 1af5 84be 0e15 f3bd 0295 f7bc
00000020: 6645 fa3e 4743 19be 0ce3 383d ae51 9dbe
00000030: c80e 0fbe 1aaf 2e3f 3859 febe 867e 4bbe
00000040: f021 10be 7cc7 a53e e5df 033f 39a4 3abe
00000050: bd15 153e f26a d43e fd82 e53e cf43 10bf
00000060: d383 aa3e 9ed3 8fbc 8a01 c1be 3985 d3be
00000070: cc8f 8bbd 8737 eabe 5d21 a7bd 5f47 183e
00000080: 63ed 2a3f 9502 13bf f279 853e c425 033e
00000090: 1eff d13e 4179 bcbe 3434 3e3e 7cee 5b3e
000000a0: 6170 1fbf 49d5 863e 41e5 da3e 9ab0 0e3f
000000b0: 401c bd3e ef03 a73e 383c 06bd 74a6 2dbf
000000c0: c8a7 b0be f155 a1bd 01bc 993d 15e7 b93d
000000d0: a83d 04bd 7466 903e 22e4 f03d bdcd 4a3d
000000e0: d871 fa3e 3c39 eb3e cd61 363e bc31 b03e
000000f0: ac99 c23c 0ec5 45bf 68ac b3b9 30d7 2e3d
0.3515462 0.008491415 -0.8286799 -0.6055684 0.22200456 -0.25968248 -0.1186925 -0.03022242
0.48881072 -0.1496707 0.045138404 -0.3072638 -0.13970482 0.68235934 -0.49677444 -0.19872484
-0.14075446 0.32378757 0.5151351 -0.18226708 0.14559074 0.41487843 0.448265 -0.5635347
0.333037 -0.017556962 -0.37696487 -0.41312578 -0.068145365 -0.4574549 -0.081606604 0.14870976
0.66768473 -0.57425815 0.260696 0.12807375 0.4101495 -0.3681126 0.18574601 0.21477693
-0.6228085 0.263346 0.42753032 0.5573822 0.36935616 0.3262019 -0.032772273 -0.6783211
-0.34503007 -0.0787772 0.07506562 0.090772785 -0.032285362 0.28203166 0.11762263 0.049512614
0.4891498 0.45942104 0.17810746 0.34412944 0.023754917 -0.77253807 -0.00034269993 0.042685688

layer2.weight f4 [64, 64]
00000000: 6b0c 3e3e 7e0e 083e c903 b9bb b1aa 8abd
00000010: 6cdf 163e 2c19 ad3d 939e 9dbc bf77 aabd
00000020: 045c 853d 9c8a 893d a5fd f9bd 5cea 143d
00000030: 7424 a33e 3061 233e fa97 ea3d da30 073d
00000040: fa5b 823d d496 593d 6313 1f3e 71a0 2fbe
00000050: f2c2 8dbd 4715 c83b c5b8 84bd 3295 853e
00000060: 8b35 ec3d d5f3 c23c 2427 58be 607b 003e
00000070: c1a5 89bd ea64 b53c fce4 713e 7995 dfbd
00000080: b1d4 a6bd 3c27 843d bf88 cc3d a467 30be
00000090: b013 603e 147d a4bd c7ed 163e 64e5 71bc
000000a0: 41d2 f0bd 4bea 213e 4900 0abc 8f3e c03c
000000b0: 29cb 293d 0bd0 5e3d e5e1 03be c72b 7c3e
000000c0: 4e51 06bd 34ae 153d 95d3 e1bc caaa 073e
000000d0: b42d 093e 9538 a93c 28ba c33d 9cd2 863a
000000e0: 660e cb3d d7fe 383e a7d0 263e 619c 283c
000000f0: d17c 563b 93d6 09be 2d60 e63c 5cbd babd
00000100: 94f7 3abe 6590 833d 404d c7bc 5845 073e
00000110: 6b72 20be c142 0f3d 03ee e83d 839d 21bd
00000120: ec08 a83d fba4 363d 38ab bf3d e46c 43be
00000130: c8fb 54bf 926e 69bb 6fce 373e 26b2 e13d
00000140: 7bb7 0b3e f549 7ebe 0847 293e a521 e63d
00000150: baf7 a93d 7632 1d3e f177 103e 7ce5 23be
00000160: f826 5cbf 7737 e1bb f304 963e 0f61 b53d
00000170: be8f fabd 8270 c5bd 5aff 04be 1c8f f03c
00000180: 1d7a 04bd 7f62 d93d b6ed 3ebb 08be aabe
00000190: 0a98 55bf 609c 823e b99c 73bd 2b85 2d3e
000001a0: 73de 963d a741 34be b9ec 3dbb a2c1 8abe
000001b0: f54b 8ebe bce3 433d 2954 15bd 972d a1bd
000001c0: c880 983d 301a 0e3e ec13 583e 85ff a13d
000001d0: 94c8 87be d253 683e daa5 8a3d abfd 023e
000001e0: 9e66 3bbe 4682 0d3d 59dc 88bd dde7 71bd
000001f0: a01b b3be 6173 4bbd 7fb7 b8bd 320c 453e
00000200: 69bb 573e d405 7d3d 5b89 0a3e 7577 35be
00000210: 09c9 143e f0cc 633e 59e7 17bd 239b 22be
00000220: fe6d 533d 2735 013e b3e8 42bd c039 8f3d
00000230: dcdd 883e 60c3 273e c3cf 1a3d c0b7 4abd
00000240: e524 1d3e e218 8c3d c3f9 ff3d d59a 6ebe
00000250: 6cff afbd aef6 a63d fb0b f63d 31cd e13d
00000260: 2afa 0b3e 5f80 743d 509e 32be c9d7 1b3d
00000270: b00f af3d 85ed ae3d f538 3e3e cc2f 13bd
00000280: 94fb 02be 50e6 85bd e256 0a3e e0b0 97bd
00000290: 1c31 43bd 0f5d 6bbe a9fb 813d 0696 dabd
000002a0: f394 dbbd 2855 1b3e d55c 22bd 6302 1c3e
000002b0: e17e 703d 890e c0bd 21bb 00bd fefc 113e
000002c0: 8137 b23b a021 e13b 85e1 fb3d e978 623d
000002d0: e005 8d3d e7bb ed3d 3d42 bd3b 2f88 10bd
000002e0: 0a19 1b3e ba5f 443d 0d6f 7c3e aac7 7fbc
000002f0: 22e4 283e 4c29 47bd 568f a4bd fab9 83bc
00000300: bff2 61bd c250 9cbd 3c47 6d3c 3d9f ab3e
00000310: 78da 34bb d6f8 8c3e 630e a03d 3abf 48be
00000320: cf99 c83d e1ec 163c d4ad 1dbe c47d 09be
00000330: 9dff 25bf 69fd 8dbd cea5 9d3d 2094 423e
00000340: b9f8 bb3e 6ebe 66be 9d32 87bd 02cb 0a3e
00000350: e032 fb3d ca7a 403e 468b 6abd f98c 1abe
00000360: c3da 56bf 9df5 45bd bdf5 423e 4192 e2bb
00000370: 8e18 04be 0765 b63d e4a5 aebc ba7c fd3c
00000380: 9ae0 97be 3cf9 043e fe64 bebd 3068 c0bd
00000390: 7cb8 48bf 2be7 503e 3514 073d 4b7e 8b3d
000003a0: a196 42bd 9df5 3fbd a900 b13d be1d f8be
000003b0: f342 d9be 7b0b 17bd 1d4c 12be e9db a6bb
000003c0: 1c60 7b3d 527f 553e 1fd5 d73e fbe8 463d
000003d0: bc9e 93be f3e0 df3d 6003 57bd 0267 b23d
000003e0: 0d5f c8be 4ad0 913d 0e04 93bd d0a1 abbb
000003f0: 20a3 f8be 83cd 713d c8ca 43be 9891 103e
0.18559425 0.13286778 -0.005646203 -0.06770838 0.14733666 0.08452067 -0.019240653 -0.08323621
0.06511691 0.06715891 -0.12206582 0.036356315 0.3186375 0.15955043 0.114547685 0.033005573
0.063651994 0.053122357 0.15534739 -0.17151047 -0.069219485 0.006106052 -0.064805545 0.2609039
0.1153365 0.023797909 -0.21108681 0.12547064 -0.06721068 0.022142846 0.23622507 -0.109171815
-0.081460364 0.06452796 0.0998702 -0.17227036 0.2188251 -0.08031669 0.14739142 -0.014764164
-0.11758853 0.15812032 -0.00842292 0.02346733 0.041453514 0.054397624 -0.1287914 0.24626075
-0.032792382 0.036543086 -0.02756671 0.13248745 0.1339634 0.020656863 0.09556991 0.0010286155
0.09914856 0.18065964 0.16290532 0.01029119 0.0032728205 -0.1346076 0.028122032 -0.09118149
-0.18258506 0.064240254 -0.024328828 0.13210046 -0.15668647 0.03497577 0.11373522 -0.039456856
0.08204827 0.04459093 0.09358829 -0.19084507 -0.8319669 -0.0035618884 0.17949842 0.11020307
0.13644211 -0.248329 0.16531003 0.11236886 0.08299203 0.1535128 0.14108254 -0.1600551
-0.8599696 -0.006873067 0.2930065 0.08856403 -0.12234448 -0.096406 -0.12988034 0.029365115
-0.03234302 0.1061449 -0.0029133386 -0.33348107 -0.8343512 0.2550993 -0.059475634 0.16945331
0.073666476 -0.1760317 -0.002898021 -0.27100855 -0.27792326 0.047824606 -0.036457215 -0.07870024
0.07446438 0.13877177 0.2110135 0.079100646 -0.26520216 0.22688225 0.06769915 0.12792079
-0.18300864 0.034548067 -0.06682653 -0.059059013 -0.34982014 -0.04967058 -0.09019374 0.19242933
0.21067585 0.061773136 0.1352896 -0.1772135 0.14529814 0.22246146 -0.037085865 -0.15879492
0.05161857 0.12617932 -0.0475852 0.06993437 0.26731765 0.16383123 0.037795793 -0.049491644
0.15346105 0.068406835 0.1249881 -0.23301251 -0.0859364 0.08152519 0.12014004 0.11025465
0.13669649 0.059692737 -0.17443204 0.038047586 0.08547914 0.08541397 0.18576415 -0.035934255
-0.12791282 -0.06538069 0.13509706 -0.07406783 -0.047654256 -0.22984718 0.063468285 -0.10673146
-0.10721769 0.15169203 -0.039639313 0.15235285 0.05871475 -0.09377772 -0.03142846 0.14256665
0.0054387455 0.0068704635 0.12298874 0.05529109 0.06885886 0.11608105 0.0057757185 -0.035286125
0.1514627 0.047942854 0.24651738 -0.0156115685 0.16493276 -0.04862337 -0.08035152 -0.016079891
-0.05516314 -0.07632591 0.014482316 0.33519927 -0.0027596038 0.27533597 0.07815244 -0.19604197
0.09794962 0.00921175 -0.15398341 -0.13426882 -0.6484316 -0.069331 0.0769764 0.19001818
0.36713198 -0.2253358 -0.066014506 0.13554004 0.12265563 0.1879684 -0.057261728 -0.1509284
-0.83927554 -0.04832994 0.19039054 -0.0069144075 -0.12899992 0.08905988 -0.021319337 0.030943263
-0.29663545 0.129857 -0.092966065 -0.09394872 -0.784065 0.20400684 0.032978255 0.06811198
-0.047506932 -0.046865094 0.08642704 -0.4846019 -0.4243389 -0.036876183 -0.14286847 -0.0050921333
0.061370954 0.2084935 0.42154786 0.04856203 -0.28832042 0.109315775 -0.052493453 0.087110534
-0.39135018 0.07119806 -0.07178508 -0.0052377954 -0.48561954 0.059033882 -0.19120324 0.1411804

layer2.bias f4 [64]
00000000: c902 063e a16f f4bc be46 593d b783 b5bd
00000010: 668e 8b3c e8e1 0c3d ffe7 973d 54eb 2bbe
00000020: 9da9 20bd af3f ae3e ef7f 3e3d 829c c4bd
00000030: 74eb 54bd 97f5 e73c 8a7b da3d 7cf8 393d
00000040: a275 8e3d 3162 c1bc 4601 93bd d8d7 30be
00000050: 919c d23c 9a82 2e3e dbaa aa3d e460 833d
00000060: 2b58 8abd 2dcc 76bd 2072 bebb 1ff4 56bd
00000070: bd03 d1bd 12c5 633c d252 263d d239 b2bd
00000080: d8f4 78be 9acd 613e 5929 e83c 62fe 703e
00000090: 46e2 b03d 24cb da3d 6481 153d 58b8 7cbd
000000a0: 1cd5 9e3d 04f8 383e 1127 00be 5c26 373c
000000b0: 9853 5a3d 0275 30be d822 953e d9ec 4b3e
000000c0: 3b33 1c3e dc6a 7f3c 8a2f 9bbd 5693 973e
000000d0: 7a3f 95bd b169 85bd dcb5 40bd a9eb 453d
000000e0: 8a06 ddbd a7ed 833e 5ce8 b23d b558 8b3d
000000f0: 381f d93d ca8f 713e d3d7 1e3e bf59 81be
0.13087 -0.029838385 0.05304598 -0.08863013 0.017035674 0.03439513 0.074172966 -0.1678899
-0.039224256 0.34032962 0.046508726 -0.09600164 -0.051982358 0.028315349 0.106680945 0.04540299
0.069560304 -0.023606392 -0.07177977 -0.17269838 0.025709422 0.17042008 0.08333369 0.06414965
-0.06755098 -0.06025331 -0.0058119446 -0.052478906 -0.10205791 0.013901966 0.040606327 -0.087024346
-0.2431215 0.22051087 0.028340029 0.2353454 0.08636908 0.10683277 0.03650035 -0.06169924
0.07755491 0.1806336 -0.12514903 0.011178579 0.053302377 -0.17232135 0.29128146 0.19914569
0.15253918 0.015589442 -0.07577427 0.29604596 -0.07287498 -0.065143 -0.047048435 0.048320446
-0.10792263 0.25767252 0.08735725 0.06804029 0.10601658 0.23590007 0.15512018 -0.25263783

layer3.weight f4 [1, 64]
00000000: 8e9e 783e d8d3 9ebe c1f4 7f3e 6e8c 9ebe
00000010: caee 94be 26fb d6be 89d9 1b3e 5aea a23e
00000020: a152 ecbd 8732 aa3e 378e a3be 7c5d bc3d
00000030: 9abc f0bd 60e6 bcbd 10c3 8a3e b33a 3cbd
00000040: fabe 80be a25d 063e 21cd 143e e5de 383e
00000050: 2e03 bdbe 9e0c 2c3e 5954 0c3e 3c26 bebe
00000060: 2580 69be b5c4 b6bd 304d 743d 54c2 903e
00000070: 098a a2bd 33ac b93d ea56 aebe 66a1 8bbd
00000080: fc04 343e 8ca5 b1be 9288 3e3e 1826 c4be
00000090: 8bf9 63be c7d5 5c3d 8d5d a53d 8d40 b13e
000000a0: 9417 6a3e 3af9 213e abe4 f53d 9b31 2e3e
000000b0: 7f40 7fbe b4ab 9f3e 3d90 34be 6507 83be
000000c0: f96d 71be 5b7f 75be 4fa2 1b3e cc6e 39be
000000d0: d0b0 babe c9ff 83be 8e51 ff3d cbb2 0f3e
000000e0: ab11 c0bd 13bc 26be 053e 8b3e 96a4 b2be
000000f0: b82c 193e 6b5d a0be 3d3f f4be db83 743e
0.24279234 -0.31021 0.2499571 -0.30966514 -0.29088432 -0.41988486 0.15219702 0.3181942
-0.11539198 0.33241674 -0.3194444 0.09197518 -0.11754723 -0.09223628 0.27101946 -0.045954417
-0.25145704 0.13121656 0.14531375 0.18053778 -0.36916488 0.16801688 0.13704051 -0.37138546
-0.2280279 -0.08924238 0.059643924 0.2827326 -0.07936484 0.090660475 -0.34050685 -0.06817894
0.17580026 -0.34696615 0.18606785 -0.38310313 -0.22263162 0.05391481 0.08074484 0.3461956
0.22860557 0.15817729 0.120065056 0.1701111 -0.24926947 0.31185687 -0.17633148 -0.2559158
-0.23577107 -0.23974364 0.15198635 -0.18108672 -0.36463022 -0.25781086 0.12466727 0.14033048
-0.0937837 -0.16282682 0.27195755 -0.34891194 0.14958465 -0.31321272 -0.47704497 0.23878424
