Other Algorithms/ppo/ppo_critic.pth (torch, 20582 bytes, 5 tensors)

layer1.weight f4 [64, 3]
-1.4154491 1.1372443 0.45616204 -0.5651876 -1.1038268 -0.03121616 -0.73741525 -2.5963824
-0.47975886 0.38634425 1.8226119 -0.39104158 -0.7573942 0.40796545 0.37044895 -2.2344687
1.911811 0.71188706 -0.45046622 1.147467 0.030763138 -0.65869874 2.2207267 0.46111533
-0.5286844 -1.2415652 0.111332834 -0.51493037 -0.66193134 -0.6806187 0.42427567 -0.13925852
0.84026927 -0.9196668 -1.5275582 0.1459366 0.111509405 0.50698256 0.6177552 -1.5348444
-1.1399313 -0.462943 -0.5199765 -0.3762843 0.1218497 -0.6037384 1.0986415 -0.09123348
1.0455381 1.3353248 0.3712807 -0.74835753 2.3273604 0.6134303 -0.25392243 1.5446624
0.34511256 0.415202 -1.4794823 -0.23251538 -1.398569 1.3695948 0.39540368 -1.6110979
-1.3182671 -0.45512277 -1.2874665 1.104957 0.39583814 0.85041475 0.3262757 0.7721387
0.09873288 -0.10741535 0.83327234 -2.4093826 -2.0878491 -0.7394767 -0.95404524 2.4776502
0.6472583 0.5811743 -0.43349043 -0.36470708 0.08982857 -0.86932904 0.023480669 0.28709787
-0.048547495 -0.016989747 1.709406 -0.019584939 0.21883072 1.6732638 -0.062400818 0.17858839
-0.9469949 0.62799376 0.3674805 0.52726966 -1.7422711 0.12111922 -0.11955507 1.7410233
0.16817701 -0.19170667 0.9146752 0.2466365 0.1557021 1.1147032 0.061919335 -0.85727537
-2.6014667 -0.6119877 -1.9689553 1.8164375 0.39234972 -0.38986632 0.43677405 0.28698674
-1.181556 -0.72238773 -0.36569527 -0.6909661 -0.9472049 0.20610856 -0.7001839 -1.2512809
-0.005404164 -0.9125081 -1.4970758 0.123801015 0.34875324 -1.3492204 0.9073355 -0.5877938
-0.9380656 0.1840967 -0.17313987 -1.1913332 0.08936041 -1.0940156 0.6506489 0.4289195
0.43727148 -0.23120831 0.121853724 -0.11748244 -1.7702668 0.6595405 -1.4743072 -1.0573934
-0.45106032 0.520468 1.9857486 -0.27292413 -0.5980769 0.52814853 -0.21064883 1.3431225
-0.8135551 -0.317102 0.060035545 1.4071617 0.11850258 -2.2575397 1.4793254 0.24496253
-0.9973739 1.5892413 -0.043599077 -1.6328634 1.3852177 0.5054708 -0.83300495 -0.39959288
-0.32245705 0.9155494 -1.2285268 -0.8446037 0.16843405 1.3143247 0.07497463 0.5876394
1.0013105 -0.005067533 0.42241478 1.249988 -0.17013384 -0.96799314 1.5017366 -0.012694287
00000000: 702d b5bf 3991 913f 128e e93e 22b0 10bf
00000010: 324a 8dbf 08b9 ffbc 3fc7 3cbf 212b 26c0
00000020: f4a2 f5be eace c53e 594b e93f 9a36 c8be
00000030: 96e4 41bf d9e0 d03e 7cab bd3e 8901 0fc0
00000040: 39b6 f43f 3b3e 363f 82a3 e6be 33e0 923f
00000050: fa02 fc3c 7ba0 28bf 6320 0e40 4f17 ec3e
00000060: dc57 07bf 9ceb 9ebf 7802 e43d 7ad2 03bf
00000070: 5574 29bf 073d 2ebf a93a d93e c999 0ebe
00000080: e31b 573f 496f 6bbf 0787 c3bf 6770 153e
00000090: 0b5f e43d 9cc9 013f 3425 1e3f c875 c4bf
000000a0: 45e9 91bf dd06 edbe 2e1d 05bf 56a8 c0be
000000b0: 568c f93d 9a8e 1abf 49a0 8c3f 9ed8 babd
000000c0: 31d4 853f eceb aa3f 8118 be3e 5c94 3fbf
000000d0: 79f3 1440 c509 1d3f 1f02 82be 7fb7 c53f
000000e0: 98b2 b03e 5b95 d43e ad5f bdbf 8318 6ebe
000000f0: 4f04 b3bf e24e af3f 5a72 ca3e 7538 cebf
00000100: fabc a8bf da05 e9be b4cb a4bf 3b6f 8d3f
00000110: 4cab ca3e c8b4 593f 9c0d a73e e2aa 453f
00000120: 7734 ca3d 94fc dbbd 5651 553f 5333 1ac0
00000130: 529f 05c0 584e 3dbf 4f3c 74bf d291 1e40
00000140: b8b2 253f d7c7 143f 75f2 ddbe e3ba babe
00000150: 0bf8 b73d 598c 5ebf 885a c03c 7efe 923e
00000160: bdd9 46bd 152e 8bbc d1cd da3f 9870 a0bc
00000170: 2915 603e 822d d63f 0098 7fbd e0df 363e
00000180: 426e 72bf 33c4 203f 6726 bc3e 25fb 063f
00000190: bd02 dfbf 5b0d f83d 4ad9 f4bd dad9 de3f
000001a0: 9836 2c3e c14e 44be 2728 6a3f 478e 7c3e
000001b0: 5f70 1f3e 98ae 8e3f 219f 7d3d 6676 5bbf
000001c0: 6e7e 26c0 3aab 1cbf ba06 fcbf 0681 e83f
000001d0: 10e2 c83e 8f9c c7be d9a0 df3e edef 923e
000001e0: 3a3d 97bf 67ee 38bf 693c bbbe 28e3 30bf
000001f0: 057c 72bf 1f0e 533e 413f 33bf f929 a0bf
00000200: 6a15 b1bb 219a 69bf 2ea0 bfbf 638b fd3d
00000210: c98f b23e 41b3 acbf 2447 683f a879 16bf
00000220: 1125 70bf d883 3c3e 944b 31be 9b7d 98bf
00000230: 9702 b73d b408 8cbf ed90 263f 569b db3e
00000240: 0ce2 df3e dfc1 6cbe 728e f93d a29a f0bd
00000250: 1a98 e2bf a5d7 283f 19b6 bcbf ab58 87bf
00000260: 61f1 e6be 643d 053f 032d fe3f b6bc 8bbe
00000270: 911b 19bf be34 073f 54b4 57be 70eb ab3f
00000280: 2645 50bf 315b a2be d5e7 753d e01d b43f
00000290: 7bb1 f23d 887b 10c0 895a bd3f 75d7 7a3e
000002a0: e553 7fbf 426c cb3f f294 32bd ab01 d1bf
000002b0: d04e b13f 8966 013f d03f 55bf 7097 ccbe
000002c0: 1719 a5be 7261 6a3f 5e40 9dbf f337 58bf
000002d0: fa79 2c3e cb3b a83f 4c8c 993d 896f 163f
000002e0: f12a 803f 8c0d a6bb c046 d83e 9bff 9f3f
000002f0: 9137 2ebe 66ce 77bf e838 c03f b3fb 4fbc

layer1.bias f4 [64]
1.0181563 0.7238769 0.018581547 0.3724797 1.2505047 0.44330472 0.7047664 -0.03843281
1.1161865 -0.058863655 0.40734556 1.0368414 0.41713238 1.2292464 0.80138445 0.51545966
0.84960085 0.12587601 0.5249041 0.82825166 0.8347849 1.1556424 0.84651124 0.15151562
0.36286515 0.33309352 0.28118917 0.9667959 1.006387 1.1571463 0.39072216 0.494813
1.0134068 0.6368651 0.38580418 1.2214118 1.0579457 0.220693 0.25275892 1.1057807
1.0554804 0.78115606 0.78261685 1.0236238 0.029447034 0.72099864 1.047297 1.2216074
1.1916716 0.36300918 1.2276828 0.5194024 1.0914423 0.77664 0.99557346 0.66663766
0.77272445 1.0837998 1.1492 0.45763186 1.2159204 1.158706 0.46798575 0.7118035
00000000: f252 823f ff4f 393f 5438 983c a9b5 be3e
00000010: 8a10 a03f d6f8 e23e 926b 343f b96b 1dbd
00000020: 33df 8e3f 041b 71bd 998f d03e 38b7 843f
00000030: 6092 d53e f257 9d3f 8827 4d3f 2af5 033f
00000040: 717f 593f a4e5 003e 1d60 063f 4d08 543f
00000050: 77b4 553f 17ec 933f f6b4 583f e926 1b3e
00000060: 76c9 b93e 3c8b aa3e 07f8 8f3e f07f 773f
00000070: 4ad1 803f 5f1d 943f bc0c c83e 2158 fd3e
00000080: 50b7 813f 9709 233f 2088 c53e 3957 9c3f
00000090: c46a 873f 59fd 613e 9e69 813e 398a 8d3f
000000a0: fb19 873f d8f9 473f 9459 483f 1b06 833f
000000b0: e83a f13c 5e93 383f d40d 863f a25d 9c3f
000000c0: b288 983f 57dc b93e b624 9d3f 8ef7 043f
000000d0: 62b4 8b3f e1d1 463f e7dd 7e3f c4a8 2a3f
000000e0: 45d1 453f f4b9 8a3f fc18 933f b94e ea3e
000000f0: 48a3 9b3f 7a50 943f d49b ef3e c138 363f

layer2.weight f4 [64, 64]
0.07331206 -0.016353104 -0.09373697 -0.11156499 -0.11594029 -0.11034993 -0.12204265 -0.07626211
-0.052180644 0.012961186 -0.10555032 -0.0318223 -0.0057343603 -0.106695265 -0.009050716 0.01555057
-0.0876435 0.011851623 -0.104184866 -0.027846284 -0.008663891 0.062678546 0.106300175 0.10817749
0.019906895 -0.05295111 -0.13384923 0.0017378834 0.06725012 0.07286041 -0.08525003 -0.11237701
-0.13524388 0.037125777 -0.12972422 -0.08859295 0.100147925 -0.037849974 0.0024311738 0.042737853
0.09465133 -0.04886546 -0.020710668 -0.08273323 -0.07867627 -0.10578127 -0.113734245 -0.0012832198
-0.0035854676 -0.032259643 -0.108043365 -0.043060176 0.08022613 -0.038088527 0.10200615 -0.12496472
0.042246785 -0.08081222 -0.026567409 -0.13227673 0.0787454 0.0719349 0.0026494418 -0.108943194
0.5059833 0.24520108 0.62943524 -0.30099428 0.36854824 -0.38543037 0.39138296 0.6895479
-0.012795148 -0.26036948 -0.21706702 0.4345794 -0.195088 0.49110463 0.09077489 -0.05813146
0.05895992 0.5344217 0.12870543 0.053370796 0.25328302 0.28457963 0.42041028 -0.23134433
-0.2590468 -0.6758107 0.594154 0.24940176 0.2367973 0.21508478 0.622836 0.87999076
0.48890206 -0.07470394 0.13426833 0.2505557 0.3114117 0.38867643 -0.42505327 0.2526838
0.47000682 0.28743312 0.4339959 0.33204854 -0.4236987 0.41841814 0.29518622 0.7270438
0.47035262 -0.27184638 0.5323741 -0.14254755 -0.034728713 0.6296667 -0.077000566 -0.18007423
0.55167407 0.5418301 0.3729471 0.03349912 0.12827103 0.31097686 -0.15065916 0.44454312
-0.07705455 -0.10712544 0.06546101 0.082732335 -0.13486966 -0.08996999 0.008776585 0.033204917
-0.068026975 -0.00034625226 -0.12979321 0.10432135 0.012862878 0.041949462 -0.044783734 0.05752782
0.048563875 0.012624199 -0.025011772 -0.116581656 -0.11503659 -0.0317775 -0.03132149 0.058689024
0.03564634 0.05115168 0.05196231 -0.09478149 -0.055088323 0.06153378 -0.070571214 -0.08694233
-0.08436635 -0.11578548 -0.074021764 0.06725268 -0.075563684 -0.011216782 0.068887316 -0.14828509
-0.09881478 -0.06932056 0.11207351 -0.089634895 -0.007970312 -0.034385223 -0.14643975 -0.13183367
-0.060370803 -0.09267218 0.11353631 -0.036823604 0.010766059 0.04231911 0.065066434 -0.109600365
0.097368956 -0.15437062 -0.06322704 -0.125748 0.022438224 0.057019245 -0.03832904 -0.023852563
0.40932044 0.2468671 0.44750077 -0.38256794 0.29775527 -0.48224992 0.355158 0.7214527
0.01315474 -0.2466659 -0.32661667 0.6301192 -0.24213888 0.56206524 0.18051206 0.015341051
0.33910927 0.6705237 0.095088385 0.08674495 0.30589545 0.28713903 0.5309699 -0.35746822
-0.42110834 -0.69859296 0.73871994 0.35231555 0.20379137 0.25922498 0.5280926 0.9310464
0.74049604 -0.3288186 0.28029487 0.38289127 0.3595598 0.46740207 -0.51683867 0.29315704
0.4489204 0.46221903 0.32303265 0.3033977 -0.5414741 0.6390051 0.41544896 0.7672732
0.5668549 -0.44840622 0.47280964 -0.26494664 -0.043608796 0.5629841 -0.11707763 -0.32524565
0.45203853 0.44257817 0.48284298 -0.3028591 0.29300812 0.21888417 -0.13234892 0.48002186
00000000: a224 963d f2f6 85bc 2bf9 bfbd 2f7c e4bd
00000010: 1a72 edbd 25ff e1bd 7ff1 f9bd 4f2f 9cbd
00000020: 5fbb 55bd 275b 543c c42a d8bd 1a58 02bd
00000030: 4de7 bbbb 0c83 dabd 7449 14bc d1c7 7e3c
00000040: 6f7e b3bd 4f2d 423c e05e d5bd e41d e4bc
00000050: fef2 0dbc 9c5d 803d e8b3 d93d 298c dd3d
00000060: c913 a33c 43e3 58bd c60f 09be b1c9 e33a
00000070: 6eba 893d d737 953d 9197 aebd eb25 e6bd
00000080: 5f7d 0abe 3311 183d 6dd6 04be 3870 b5bd
00000090: 5b1a cd3d 9308 1bbd 5454 1f3b e30d 2f3d
000000a0: 8ed8 c13d 2627 48bd 6ba9 a9bc 0a70 a9bd
000000b0: 0621 a1bd daa3 d8bd 80ed e8bd b631 a8ba
000000c0: 2afa 6abb b022 04bd d745 ddbd de5f 30bd
000000d0: 994d a43d b702 1cbd 9ae8 d03d 81ed ffbd
000000e0: f70a 2d3d e180 a5bd e5a3 d9bc 8d73 07be
000000f0: 4545 a13d 9b52 933d 42a2 2d3b 9c1d dfbd
00000100: 1f88 013f fe15 7b3e ab22 213f ec1b 9abe
00000110: 5bb2 bc3e 2157 c5be 5963 c83e 3686 303f
00000120: bea2 51bc 264f 85be d146 5ebe 3181 de3e
00000130: 26c5 47be 1172 fb3e 2fe8 b93d 411b 6ebd
00000140: f57f 713d dccf 083f 5bcb 033e 569b 5a3d
00000150: 50ae 813e 6cb4 913e 0440 d73e 87e5 6cbe
00000160: c8a1 84be ee01 2dbf 7a1a 183f 2d63 7f3e
00000170: fe7a 723e 2f3f 5c3e 2e72 1f3f 1347 613f
00000180: 5f51 fa3e 61fe 98bd a37d 093e d648 803e
00000190: 5b71 9f3e 9900 c73e 95a0 d9be c55f 813e
000001a0: bca4 f03e 6f2a 933e b634 de3e 4402 aa3e
000001b0: 09ef d8be e73a d63e a622 973e 8b1f 3a3f
000001c0: 0fd2 f03e 732f 8bbe ab49 083f fcf7 11be
000001d0: b23f 0ebd d631 213f 79b2 9dbd 6165 38be
000001e0: 833a 0d3f 61b5 0a3f ecf2 be3e 6036 093d
000001f0: 7b59 033e 5c38 9f3e 6546 1abe 289b e33e
00000200: c7ce 9dbd 9564 dbbd 6c10 863d 926f a93d
00000210: 461b 0abe 3042 b8bd aacb 0f3c e101 083d
00000220: ba51 8bbd 3189 b5b9 83e8 04be 6fa6 d53d
00000230: d2be 523c 33d3 2b3d 266f 37bd 4ba2 6b3d
00000240: eaea 463d bad5 4e3c 7de5 ccbc 5dc2 eebd
00000250: 4e98 ebbd 2029 02bd f64a 00bd e763 703d
00000260: e601 123d 6d84 513d 6ed6 543d cc1c c2bd
00000270: 4ba4 61bd d80a 7c3d a487 90bd d20e b2bd
00000280: 44c8 acbd f020 edbd b998 97bd c6bb 893d
00000290: 22c1 9abd 98c6 37bc cb14 8d3d 0cd8 17be
000002a0: 675f cabd f0f7 8dbd cc86 e53d 8092 b7bd
000002b0: e995 02bc 85d7 0cbd 4df4 15be 68ff 06be
000002c0: 6047 77bd e9ca bdbd ba85 e83d 59d4 16bd
000002d0: 2064 303c ce56 2d3d 8d41 853d 2876 e0bd
000002e0: 6069 c73d 5513 1ebe 2e7d 81bd 15c4 00be
000002f0: 5ed0 b73c 038d 693d e9fe 1cbd 7366 c3bc
00000300: 7392 d13e bbca 7c3e d21e e53e f2df c3be
00000310: 6173 983e 76e9 f6be 45d7 b53e 20b1 383f
00000320: fb86 573c fc95 7cbe 4d3a a7be 7e4f 213f
00000330: 41f3 77be 82e3 0f3f 27d8 383e 0859 7b3c
00000340: bb9f ad3e 71a7 2b3f b3bd c23d 56a7 b13d
00000350: 549e 9c3e e303 933e a5ed 073f 1306 b7be
00000360: 839b d7be fdd6 32bf c01c 3d3f b462 b43e
00000370: afae 503e 23b9 843e 1431 073f 0f59 6e3f
00000380: 2691 3d3f e95a a8be cf82 8f3e 530a c43e
00000390: 3918 b83e 534f ef3e 8a4f 04bf ae18 963e
000003a0: e5d8 e53e f9a7 ec3e 8964 a53e f156 9b3e
000003b0: 0c9e 0abf d795 233f bab5 d43e 046c 443f
000003c0: 671d 113f 8095 e5be 1b14 f23e 16a7 87be
000003d0: 239f 32bd ba1f 103f 65c6 efbd 9986 a6be
000003e0: 9871 e73e 9b99 e23e 3237 f73e 5910 9bbe
000003f0: 2905 963e 2c23 603e 7a86 07be 6dc5 f53e

layer2.bias f4 [64]
0.020863118 0.35277122 0.002242241 0.33294192 0.18301003 0.28991404 0.26985598 -0.0049151117
0.42887944 -0.07523462 0.09953971 0.20863 -0.05160783 0.37102222 -0.0021406997 0.26561704
0.2856494 0.2099567 0.064729996 0.07582809 0.05538583 0.3826763 -0.071393706 0.16679753
0.4100452 0.4041667 -0.19794448 0.2875499 0.013772307 0.36726484 -0.077852435 -0.04476109
0.38084215 0.30890024 0.40073302 0.47962973 0.37630168 0.4366311 0.31970862 0.27726632
0.25196624 0.0041987686 0.04152476 0.3137757 -0.035229445 0.0940402 0.25913346 -0.00929842
0.51927745 0.39212385 -0.43103647 0.2860632 -0.13547826 0.21984787 0.42060304 0.2547264
0.08323645 -0.040471572 0.24288164 0.23250459 0.49832967 0.26801217 0.2996403 0.04332217
00000000: 21e9 aa3c 6e9e b43e 90f2 123b 5d77 aa3e
00000010: fb66 3b3e 9d6f 943e 902a 8a3e f20e a1bb
00000020: 1696 db3e 9c14 9abd 7adb cb3d 1aa3 553e
00000030: bb62 53bd a0f6 bd3e fb4a 0cbb f5fe 873e
00000040: a340 923e e4fe 563e 2991 843d c24b 9b3d
00000050: 41dc 623d 26ee c33e dd36 92bd f9cc 2a3e
00000060: 72f1 d13e f0ee ce3e f5b1 4abe be39 933e
00000070: 3ea5 613c 230a bc3e 1971 9fbd 6857 37bd
00000080: befd c23e 2c28 9e3e e12c cd3e 0792 f53e
00000090: 9daa c03e 1d8e df3e d9b0 a33e daf5 8d3e
000000a0: b801 813e d395 893b de15 2a3d 35a7 a03e
000000b0: c04c 10bd 2698 c03d 24ad 843e 6658 18bc
000000c0: 5eef 043f 75c4 c83e d0b0 dcbe e076 923e
000000d0: d0ba 0abe cd1f 613e 4859 d73e 806b 823e
000000e0: df77 aa3d 85c5 25bd f7b5 783e af15 6e3e
000000f0: 1125 ff3e e438 893e 746a 993e 9672 313d

layer3.weight f4 [1, 64]
0.0677612 -0.44702083 0.10886196 -0.49050486 -0.530477 -0.49617723 -0.5242821 0.011588951
-0.5363193 -0.05552849 0.06824093 -0.5355834 0.016912026 -0.4016263 0.0012254262 -0.4395051
1.3466507 -0.5551515 0.0058852555 0.0635771 0.06236686 -0.44652385 0.09262442 -0.5185505
-0.44566655 -0.48024917 2.0395381 1.1063516 0.105228715 -0.46189666 0.08628128 0.08516877
-0.45290342 -0.4508488 -0.5272658 -0.44026157 0.9092219 -0.411634 -0.5082683 -0.4264306
1.5289823 0.09053416 0.05866989 -0.4957882 0.057823837 0.007705429 -0.5300644 0.05517277
1.1565062 -0.42803302 1.3172147 -0.39035127 0.042555172 -0.4905071 -0.52688986 -0.46318018
0.0104396185 0.12702662 -0.43066072 0.32655787 1.0333184 -0.4043115 -0.480067 1.1826148
00000000: 62c6 8a3d eadf e4be 05f3 de3d 7423 fbbe
00000010: 57cd 07bf f10a febe 5a37 06bf 95df 3d3c
00000020: 394c 09bf d871 63bd e7c1 8b3d fe1b 09bf
00000030: 178b 8a3c f6a1 cdbe 7b9e a03a d006 e1be
00000040: 0d5f ac3f 691e 0ebf 1ad9 c03b b634 823d
00000050: 6574 7f3d c69e e4be dfb1 bd3d babf 04bf
00000060: 682e e4be 38e3 f5be cb87 0240 ee9c 8d3f
00000070: 2782 d73d b87d ecbe 3db4 b03d f76c ae3d
00000080: f5e2 e7be a7d5 e6be e4fa 06bf f769 e1be
00000090: c4c2 683f b1c1 d2be df1d 02bf 1d55 dabe
000000a0: b1b5 c33f f969 b93d d74f 703d f3d7 fdbe
000000b0: b0d8 6c3d d37d fc3b 4db2 07bf d8fc 613d
000000c0: 6508 943f 2527 dbbe 7e9a a83f 1fdc c7be
000000d0: 554e 2e3d bf23 fbbe 41e2 06bf f425 edbe
000000e0: ef0a 2b3c 4413 023e 907f dcbe 9832 a73e
000000f0: c743 843f eb01 cfbe 58cb f5be ec5f 973f
